pose_classifier.tflite (tflite, 26720 bytes, 6 tensors)

model/dense_2/MatMul f4 [2, 64]
0	0xbec87441	-0.39151195
1	0xbef28845	-0.4736959
2	0x3f018149	0.505879
3	0xbec21a4f	-0.37910697
4	0xbd142d76	-0.036176167
5	0xbea9686d	-0.33087483
6	0x3e91c70e	0.2847218
7	0x3ed8ec9e	0.42368025
8	0xbeb801e8	-0.35938954
9	0x3df6a4da	0.12043162
10	0xbde93177	-0.11386388
11	0x3e8b7ab0	0.2724204
12	0x3ed1ef62	0.41002947
13	0x3ed989fc	0.42488086
14	0xbedcee17	-0.43150398
15	0x3e99d890	0.30048037
16	0xbed40b79	-0.41415003
17	0x3ef6a3fc	0.48171985
18	0xbdfcbdc0	-0.123408794
19	0xbdbb60cd	-0.09149323
20	0x3f016ce1	0.5055676
21	0x3e9ecd19	0.31015852
22	0x3d717660	0.05895078
23	0x3e64eeeb	0.22356765
24	0xbed7b86e	-0.42132896
25	0x3edb37e8	0.4281609
26	0x3ec1119c	0.37708747
27	0xbe3296fe	-0.17440411
28	0x3f0cc479	0.54987293
29	0xbe5f6cbc	-0.21818823
30	0xbea77a7d	-0.3271064
31	0xbe5d27e8	-0.21597254
32	0x3ed3783a	0.41302663
33	0xbe0ff4de	-0.14058253
34	0xbe4c06c9	-0.19924463
35	0x3f062051	0.5239306
36	0x3efb8437	0.4912431
37	0xbde0f381	-0.10983945
38	0x3e87a935	0.26496282
39	0x3ecb9e20	0.39769077
40	0xbebf02fd	-0.37306967
41	0x3ea1c437	0.31595013
42	0x3ec58304	0.3857652
43	0x3f0957a7	0.5364937
44	0x3ec1716b	0.37781844
45	0x3e08fb6b	0.13377158
46	0x3ed11626	0.4083721
47	0x3dbb13e8	0.09134656
48	0xbe5ad8a1	-0.213717
49	0xbe8e88cd	-0.27838746
50	0x3f01c587	0.5069203
51	0xbe740004	-0.23828131
52	0x3e94ff13	0.29100856
53	0x3ef3d53d	0.47623625
54	0xbe92baa4	-0.2865802
55	0x3eb80d0b	0.3594745
56	0x3ea32dba	0.31870824
57	0x3e976506	0.29569262
58	0xbec83c44	-0.3910848
59	0xbe9ab1a0	-0.30213642
60	0xbe8ab33c	-0.2708987
61	0x3eea48d9	0.45758703
62	0xbdfeea17	-0.12446993
63	0x3ecf58b5	0.40497366
64	0x3ec1121a	0.37709123
65	0x3e87c0ae	0.2651419
66	0xbd49c439	-0.049259398
67	0x3edc35d3	0.43009815
68	0x3ebb7773	0.3661457
69	0x3e9d4243	0.30714616
70	0xbeaffa7e	-0.34370798
71	0xbea9d613	-0.33171138
72	0xbdeb70f8	-0.114961565
73	0xbf0773d1	-0.52911097
74	0x3ddb015a	0.10693617
75	0xbde63573	-0.112406634
76	0xbee79b5a	-0.4523571
77	0xbe3ed58f	-0.18636154
78	0x3e8933d3	0.2679735
79	0xbe98fc1f	-0.29879853
80	0x3d23606c	0.039886877
81	0xbe38189a	-0.17978135
82	0x3ec6e482	0.38846213
83	0x3ebe2e14	0.3714453
84	0xbe789556	-0.24275717
85	0xbe9840fc	-0.2973708
86	0x3ecb8366	0.39748687
87	0xbe6369fe	-0.22208402
88	0x3d384905	0.04499151
89	0xbea17aaa	-0.31538898
90	0xbe98c3c3	-0.29836854
91	0x3e9a56b6	0.3014428
92	0xbeb97a16	-0.36225957
93	0x3eb69bfe	0.35665888
94	0xbcefffe8	-0.02929683
95	0x3d9a12bb	0.07523104
96	0xbec1b745	-0.37835136
97	0x3e58e3ed	0.21180697
98	0x3e82fe37	0.25584576
99	0xbcae2b96	-0.021261018
100	0xbf03df73	-0.5151283
101	0x3ec29583	0.38004693
102	0xbe8b7cbd	-0.27243605
103	0xbe91e65d	-0.28496066
104	0xbdb7a0f0	-0.08966243
105	0xbdfa040d	-0.12207804
106	0xbe912b52	-0.28353363
107	0xbdedee16	-0.11617677
108	0xbe147a3d	-0.14499755
109	0xbead5d83	-0.33860406
110	0x3b7b5951	0.0038352797
111	0x3edde0fa	0.43335706
112	0x3e856a40	0.26057625
113	0x3e8ed4bd	0.2789668
114	0xbd79e0fc	-0.061005577
115	0x3e165215	0.1467975
116	0xbee704b9	-0.4512079
117	0xbdf31b2f	-0.11870419
118	0x3e077b04	0.1323052
119	0xbda6c842	-0.08143665
120	0xbee83d66	-0.45359343
121	0xbe254721	-0.16140415
122	0x3e9e0af2	0.30867726
123	0xbbc42e3d	-0.0059869573
124	0xbcafd9af	-0.021466104
125	0xbee488b7	-0.44635555
126	0x3e448ad6	0.19193587
127	0xbe88ce43	-0.26719865

model/dense/BiasAdd/ReadVariableOp f4 [128]
0	0xbd9ce3e1	-0.07660652
1	0x3ae7b8ca	0.0017678973
2	0xbc8af548	-0.016962662
3	0x3b6dae74	0.0036267312
4	0x3c54aee5	0.012981151
5	0xbca6cc28	-0.020361021
6	0x3c6f2b66	0.014597749
7	0xbd7be111	-0.061493937
8	0xba9c33f2	-0.0011917336
9	0xbbec5353	-0.0072120815
10	0x3c368304	0.011139635
11	0x3b971cd0	0.004611589
12	0x3c04dd89	0.008109459
13	0x38857b48	6.364897e-05
14	0xbdb14f92	-0.08657755
15	0xbd26c491	-0.040714804
16	0x3c487752	0.012235479
17	0x3cccaf43	0.024985915
18	0x3c6dccfc	0.014514204
19	0x3bd83dd2	0.0065991664
20	0x3aeb7cf6	0.0017966318
21	0xbc114d13	-0.008868474
22	0x3c23e1c2	0.010002555
23	0x3bdde40a	0.006771569
24	0x3c1974f3	0.009366262
25	0xbbe1198b	-0.0068695
26	0xbcfba75f	-0.030719457
27	0x3c141f3d	0.009040651
28	0x3ce3527a	0.027749289
29	0xbdc7bf30	-0.09753263
30	0xbd9fe93e	-0.07808159
31	0xbc08a91e	-0.008341102
32	0xbd8fe776	-0.070265695
33	0xbd0059b9	-0.031335566
34	0xbd6ce1be	-0.057832472
35	0x3c3fc651	0.011704997
36	0xbd9491c0	-0.07254362
37	0xbdb3c0c0	-0.087769985
38	0x3c34eb96	0.011042496
39	0x3bb320e2	0.0054665664
40	0xbca35ecb	-0.019942662
41	0x3c44819f	0.011993795
42	0x3c6742f9	0.014115089
43	0xbc08ef98	-0.008357905
44	0xbd9ed895	-0.077561535
45	0x3cb4dfc7	0.022079362
46	0xbc90a160	-0.017655075
47	0x3b4dac14	0.0031383084
48	0x3accd84c	0.0015628426
49	0x3b8728f6	0.004124756
50	0xbba62083	-0.0050697937
51	0x3b2e890e	0.0026631984
52	0x3bb144bc	0.005409805
53	0xbdd5cfb5	-0.104400076
54	0xbd19fc85	-0.037594337
55	0xbdb14416	-0.086555645
56	0xbd573c8d	-0.05254798
57	0x3c93aeb6	0.018027645
58	0xbd8121d4	-0.0630528
59	0x3ac4062a	0.001495545
60	0xbcdb3596	-0.02675895
61	0x3c169f92	0.009193318
62	0xbd94f0eb	-0.07272514
63	0xbd86f4f3	-0.06589689
64	0xbd0e6240	-0.034761667
65	0xbca17068	-0.01970692
66	0x3abb1635	0.0014273586
67	0xbd91a8f2	-0.07112302
68	0x3c5105dc	0.012757745
69	0xbcca7961	-0.024716081
70	0x3be94880	0.0071192384
71	0xbc9dbb06	-0.019254219
72	0xbc4c0ecd	-0.012454701
73	0xba9e54a3	-0.0012079667
74	0x3d3c0645	0.045904417
75	0xbcd40788	-0.025882497
76	0xbbab5dbc	-0.00522968
77	0xbd8c75ea	-0.06858428
78	0x3ba542e7	0.005043376
79	0xbd8b511a	-0.06802578
80	0x3b23637b	0.002493112
81	0x3b520c58	0.0032050814
82	0x3c032369	0.008004048
83	0xbc987c7a	-0.018614043
84	0xbacddd8a	-0.0015706283
85	0x3cbe666f	0.023242204
86	0x3c2bfc21	0.010497124
87	0x3d302b0f	0.043009814
88	0xbc60bd27	-0.013716972
89	0xbd702209	-0.05862621
90	0x3c602a92	0.013682025
91	0x3b81eb9b	0.003964854
92	0xbd7d34ca	-0.06181792
93	0xbc822a76	-0.015889388
94	0x3c4ec21a	0.01261952
95	0x3b8f2e76	0.0043695522
96	0xbbba1682	-0.0056789527
97	0xbc1a37e5	-0.00941274
98	0x3cb14931	0.021641346
99	0xbc92cd5e	-0.017920192
100	0x3c2919fc	0.010321137
101	0x3c320e1e	0.010867624
102	0x3c569be9	0.013098695
103	0x3b102cf9	0.0021999462
104	0xbd6eef9c	-0.058333978
105	0xbbe19c9a	-0.0068851234
106	0xbcf45c0f	-0.029829053
107	0x3bb68bc8	0.0055708624
108	0x3c07f978	0.008299224
109	0xbdc1a76d	-0.09455762
110	0x3c132194	0.008980174
111	0x3b9149c0	0.0044338405
112	0x3c9f9b0b	0.01948311
113	0x3b98aa7e	0.004658996
114	0x3bbcecf8	0.0057655536
115	0x3c40a388	0.011757739
116	0x3c3b0433	0.011414575
117	0xb8e3a644	-0.00010855173
118	0x3c13435b	0.008988227
119	0xbdba3412	-0.09091963
120	0xbd8478a5	-0.064683236
121	0xbddea17b	-0.10870644
122	0xbcb1f24a	-0.021721978
123	0xbbc24d7f	-0.0059296484
124	0xbd935eea	-0.07195838
125	0x3c6e75f4	0.014554489
126	0x3ca53842	0.020168427
127	0x3bde73c2	0.0067887018

model/dense_2/BiasAdd/ReadVariableOp f4 [2]
0	0x3d2bbbe7	0.041927245
1	0xbd2bbbe3	-0.04192723

model/dense_1/BiasAdd/ReadVariableOp f4 [64]
0	0x3d14c8a6	0.036324166
1	0x3d5a416b	0.053285044
2	0x3d1082d8	0.035281032
3	0x3cf52e33	0.029929256
4	0x3ce06a42	0.027394418
5	0x3d02fb31	0.031977836
6	0x3caec619	0.021334695
7	0x3d2eae90	0.042646945
8	0xbdb136cd	-0.086530305
9	0x3d2c718e	0.04210048
10	0x3b8be154	0.0042688046
11	0x3d23a908	0.039956123
12	0x3d03ac7f	0.032146927
13	0x3d5f8338	0.0545685
14	0x3cccd166	0.025002193
15	0x3d35db90	0.044398844
16	0x3d37be0b	0.044858973
17	0x3c12278e	0.008920563
18	0x3d028413	0.031864237
19	0x3d0cae9a	0.0343462
20	0x3c9e10b0	0.019295067
21	0x3d020190	0.03173977
22	0x3d574dfa	0.0525646
23	0x3d2bec07	0.04197314
24	0x3d4633ab	0.04838912
25	0x3d393636	0.045217715
26	0x3cfb5d91	0.030684264
27	0x3cce7025	0.025199959
28	0x3d0d5103	0.034501087
29	0x3d3286fd	0.043585766
30	0x3d32f7aa	0.043693222
31	0xbd10614f	-0.03524905
32	0x3d251366	0.040301703
33	0x3cb87320	0.022515833
34	0x3d025b58	0.031825393
35	0x3cd523fa	0.026018132
36	0x3c8ded14	0.017324962
37	0x3d5c5634	0.053793147
38	0x3d194ef8	0.037428826
39	0x3cf3331c	0.029687457
40	0x3db4ce54	0.088284165
41	0x3cfd3840	0.030910611
42	0x3d3bd3c3	0.04585625
43	0x3cf92f70	0.030418128
44	0x3cf2613b	0.029587379
45	0x3d6ef8d2	0.058342762
46	0x3d264734	0.04059525
47	0x3d66e2ed	0.056368757
48	0x3d000614	0.031255797
49	0x3d4d40ef	0.050110754
50	0x3cedd3db	0.029031685
51	0x3cb1919c	0.021675877
52	0x3cd109e9	0.02551742
53	0x3d130956	0.035897575
54	0xbd0cb404	-0.034351364
55	0x3c5e43e7	0.013565994
56	0x3d026763	0.03183688
57	0x3ce88cc6	0.028387439
58	0x3d2704ab	0.040775936
59	0xbd74e0b1	-0.059784595
60	0x3c7483cf	0.014924004
61	0x3d37c41d	0.044864763
62	0x3d1673ce	0.036731534
63	0x3cc79a20	0.024365485

model/dense/MatMul i1 [128, 34] scale=0.0051954133 zero_point=0
0	0x0a	0.05195413
1	0xfa	-0.03117248
2	0x05	0.025977066
3	0x32	0.25977066
4	0xf5	-0.057149544
5	0x28	0.20781653
6	0x1d	0.15066698
7	0x1e	0.15586239
8	0xdb	-0.19223028
9	0x22	0.17664406
10	0x0a	0.05195413
11	0x15	0.10910368
12	0x14	0.10390826
13	0x26	0.19742571
14	0xfc	-0.020781653
15	0xe9	-0.119494505
16	0xe0	-0.16625322
17	0xe6	-0.13508074
18	0xe6	-0.13508074
19	0x10	0.08312661
20	0xf9	-0.036367893
21	0x1e	0.15586239
22	0x15	0.10910368
23	0x2c	0.22859818
24	0x0d	0.06754037
25	0xca	-0.28055233
26	0x1d	0.15066698
27	0xfd	-0.01558624
28	0xe7	-0.12988533
29	0x09	0.04675872
30	0xf3	-0.06754037
31	0xfb	-0.025977066
32	0x04	0.020781653
33	0xf5	-0.057149544
34	0x11	0.08832203
35	0xfc	-0.020781653
36	0xf7	-0.04675872
37	0xfd	-0.01558624
38	0xfe	-0.0103908265
39	0x17	0.119494505
40	0xed	-0.098712854
41	0x0c	0.06234496
42	0x11	0.08832203
43	0xec	-0.10390826
44	0x16	0.11429909
45	0xd6	-0.21820736
46	0xe2	-0.15586239
47	0xe2	-0.15586239
48	0x0c	0.06234496
49	0xad	-0.4312193
50	0xf9	-0.036367893
51	0xe5	-0.14027616
52	0x1d	0.15066698
53	0x30	0.24937984
54	0xf7	-0.04675872
55	0x24	0.18703488
56	0xde	-0.17664406
57	0x11	0.08832203
58	0x1a	0.13508074
59	0x03	0.01558624
60	0x03	0.01558624
61	0x36	0.28055233
62	0x1a	0.13508074
63	0x0a	0.05195413
64	0xf2	-0.07273579
65	0x02	0.0103908265
66	0x15	0.10910368
67	0xfb	-0.025977066
68	0xda	-0.19742571
69	0x1a	0.13508074
70	0x04	0.020781653
71	0x08	0.041563306
72	0xe4	-0.14547157
73	0xeb	-0.10910368
74	0xec	-0.10390826
75	0x25	0.19223028
76	0x13	0.098712854
77	0x1c	0.14547157
78	0xf5	-0.057149544
79	0xf2	-0.07273579
80	0x05	0.025977066
81	0xdc	-0.18703488
82	0x08	0.041563306
83	0x17	0.119494505
84	0xec	-0.10390826
85	0x18	0.12468992
86	0xc2	-0.32211563
87	0xfa	-0.03117248
88	0xcf	-0.25457525
89	0xc1	-0.32731104
90	0x21	0.17144863
91	0x11	0.08832203
92	0xf4	-0.06234496
93	0xd8	-0.20781653
94	0xee	-0.09351744
95	0x0c	0.06234496
96	0x1a	0.13508074
97	0xea	-0.11429909
98	0xfa	-0.03117248
99	0x34	0.27016148
100	0xfa	-0.03117248
101	0xdd	-0.18183947
102	0xea	-0.11429909
103	0xea	-0.11429909
104	0xdd	-0.18183947
105	0xec	-0.10390826
106	0xde	-0.17664406
107	0xed	-0.098712854
108	0xe8	-0.12468992
109	0xf9	-0.036367893
110	0x17	0.119494505
111	0xec	-0.10390826
112	0xe7	-0.12988533
113	0x13	0.098712854
114	0x1d	0.15066698
115	0xfb	-0.025977066
116	0x10	0.08312661
117	0xdb	-0.19223028
118	0xfc	-0.020781653
119	0xf2	-0.07273579
120	0x0c	0.06234496
121	0xff	-0.0051954133
122	0x10	0.08312661
123	0x1e	0.15586239
124	0xf6	-0.05195413
125	0xe6	-0.13508074
126	0x05	0.025977066
127	0x39	0.29613855
128	0xf6	-0.05195413
129	0xf5	-0.057149544
130	0xe1	-0.16105781
131	0xfb	-0.025977066
132	0xf5	-0.057149544
133	0x14	0.10390826
134	0xf5	-0.057149544
135	0x22	0.17664406
136	0x11	0.08832203
137	0x0d	0.06754037
138	0x03	0.01558624
139	0xd5	-0.22340277
140	0xef	-0.08832203
141	0xf2	-0.07273579
142	0x23	0.18183947
143	0xec	-0.10390826
144	0xf7	-0.04675872
145	0xee	-0.09351744
146	0xe5	-0.14027616
147	0x19	0.12988533
148	0x09	0.04675872
149	0x3b	0.30652937
150	0xfc	-0.020781653
151	0x23	0.18183947
152	0xe2	-0.15586239
153	0x50	0.41563305
154	0xe2	-0.15586239
155	0xf1	-0.077931195
156	0x32	0.25977066
157	0xc6	-0.30133396
158	0x0e	0.07273579
159	0xa2	-0.48836884
160	0xe0	-0.16625322
161	0x30	0.24937984
162	0xea	-0.11429909
163	0xc9	-0.28574774
164	0xf7	-0.04675872
165	0xe1	-0.16105781
166	0xf4	-0.06234496
167	0xcb	-0.2753569
168	0xe4	-0.14547157
169	0xc2	-0.32211563
170	0x08	0.041563306
171	0xe3	-0.15066698
172	0xec	-0.10390826
173	0xe4	-0.14547157
174	0xfe	-0.0103908265
175	0x19	0.12988533
176	0xf8	-0.041563306
177	0x07	0.036367893
178	0xf7	-0.04675872
179	0x12	0.09351744
180	0x00	0.0
181	0x16	0.11429909
182	0x00	0.0
183	0xe4	-0.14547157
184	0xfc	-0.020781653
185	0x08	0.041563306
186	0x23	0.18183947
187	0x1c	0.14547157
188	0xed	-0.098712854
189	0x11	0.08832203
190	0xfa	-0.03117248
191	0xef	-0.08832203
192	0xff	-0.0051954133
193	0xf1	-0.077931195
194	0x20	0.16625322
195	0xec	-0.10390826
196	0x18	0.12468992
197	0x1a	0.13508074
198	0xef	-0.08832203
199	0x19	0.12988533
200	0x0a	0.05195413
201	0x07	0.036367893
202	0x00	0.0
203	0x11	0.08832203
204	0xe0	-0.16625322
205	0x11	0.08832203
206	0x19	0.12988533
207	0xfd	-0.01558624
208	0x25	0.19223028
209	0xfe	-0.0103908265
210	0xe6	-0.13508074
211	0xfb	-0.025977066
212	0xf7	-0.04675872
213	0x04	0.020781653
214	0x1a	0.13508074
215	0xfc	-0.020781653
216	0xff	-0.0051954133
217	0x0a	0.05195413
218	0xe7	-0.12988533
219	0xcc	-0.27016148
220	0x2b	0.22340277
221	0xb6	-0.38446057
222	0xfb	-0.025977066
223	0x02	0.0103908265
224	0xe9	-0.119494505
225	0x05	0.025977066
226	0xeb	-0.10910368
227	0xd4	-0.22859818
228	0x05	0.025977066
229	0x0c	0.06234496
230	0xf1	-0.077931195
231	0x31	0.25457525
232	0xf3	-0.06754037
233	0x22	0.17664406
234	0xec	-0.10390826
235	0x23	0.18183947
236	0x05	0.025977066
237	0x2b	0.22340277
238	0x10	0.08312661
239	0xd1	-0.24418442
240	0xef	-0.08832203
241	0x15	0.10910368
242	0xee	-0.09351744
243	0xd5	-0.22340277
244	0x02	0.0103908265
245	0x0e	0.07273579
246	0xe6	-0.13508074
247	0xf1	-0.077931195
248	0xf8	-0.041563306
249	0x11	0.08832203
250	0x19	0.12988533
251	0x12	0.09351744
252	0xea	-0.11429909
253	0xea	-0.11429909
254	0x04	0.020781653
255	0xbf	-0.33770186

model/dense_1/MatMul i1 [64, 128] scale=0.004228206 zero_point=0
0	0x2c	0.18604106
1	0xee	-0.0761077
2	0x16	0.09302053
3	0x16	0.09302053
4	0x3a	0.24523593
5	0x0e	0.05919488
6	0xe8	-0.10147694
7	0x13	0.080335915
8	0x35	0.22409491
9	0x02	0.008456412
10	0x11	0.0718795
11	0xe6	-0.109933354
12	0xc5	-0.24946415
13	0xe6	-0.109933354
14	0x20	0.13530259
15	0x23	0.1479872
16	0x0e	0.05919488
17	0x12	0.0761077
18	0xf8	-0.033825647
19	0xd3	-0.19026926
20	0xff	-0.004228206
21	0x30	0.20295388
22	0xf9	-0.02959744
23	0xec	-0.08456412
24	0x09	0.03805385
25	0x3e	0.26214877
26	0x2c	0.18604106
27	0xf3	-0.054966677
28	0x34	0.21986671
29	0x19	0.10570515
30	0x18	0.10147694
31	0xf0	-0.067651294
32	0x29	0.17335644
33	0xf5	-0.046510264
34	0x16	0.09302053
35	0x08	0.033825647
36	0x02	0.008456412
37	0x34	0.21986671
38	0xc6	-0.24523593
39	0xd1	-0.19872567
40	0xfd	-0.012684617
41	0x22	0.143759
42	0xf8	-0.033825647
43	0xd3	-0.19026926
44	0x14	0.08456412
45	0x08	0.033825647
46	0xeb	-0.088792324
47	0x08	0.033825647
48	0x44	0.287518
49	0xe5	-0.11416156
50	0x13	0.080335915
51	0xca	-0.22832312
52	0xcc	-0.21986671
53	0x0b	0.046510264
54	0x10	0.067651294
55	0xfb	-0.02114103
56	0x22	0.143759
57	0xdd	-0.1479872
58	0x29	0.17335644
59	0xfe	-0.008456412
60	0x08	0.033825647
61	0xe0	-0.13530259
62	0x0b	0.046510264
63	0x15	0.088792324
64	0x11	0.0718795
65	0x28	0.16912824
66	0xfa	-0.025369234
67	0x0c	0.05073847
68	0xdb	-0.15644361
69	0x26	0.16067183
70	0xea	-0.09302053
71	0xc7	-0.24100773
72	0x13	0.080335915
73	0x0d	0.054966677
74	0x24	0.1522154
75	0x02	0.008456412
76	0x13	0.080335915
77	0xf7	-0.03805385
78	0xf6	-0.04228206
79	0x2e	0.19449747
80	0x0f	0.06342309
81	0x34	0.21986671
82	0xce	-0.2114103
83	0xd2	-0.19449747
84	0x1f	0.13107438
85	0x28	0.16912824
86	0xfd	-0.012684617
87	0x27	0.16490003
88	0xf1	-0.06342309
89	0x11	0.0718795
90	0xfb	-0.02114103
91	0xf8	-0.033825647
92	0xea	-0.09302053
93	0x2e	0.19449747
94	0x07	0.02959744
95	0xf3	-0.054966677
96	0xd0	-0.20295388
97	0xef	-0.0718795
98	0x2e	0.19449747
99	0xf4	-0.05073847
100	0xd5	-0.18181285
101	0x0b	0.046510264
102	0xf7	-0.03805385
103	0xd8	-0.16912824
104	0x1e	0.12684618
105	0x0c	0.05073847
106	0xde	-0.143759
107	0x19	0.10570515
108	0xf0	-0.067651294
109	0x26	0.16067183
110	0xff	-0.004228206
111	0x0f	0.06342309
112	0xc4	-0.25369236
113	0x1e	0.12684618
114	0xe6	-0.109933354
115	0xed	-0.080335915
116	0x00	0.0
117	0xfa	-0.025369234
118	0xe5	-0.11416156
119	0xf2	-0.05919488
120	0xed	-0.080335915
121	0x1b	0.11416156
122	0xfb	-0.02114103
123	0x38	0.23677953
124	0x29	0.17335644
125	0x0c	0.05073847
126	0xdc	-0.1522154
127	0x0e	0.05919488
128	0xee	-0.0761077
129	0xec	-0.08456412
130	0x23	0.1479872
131	0x02	0.008456412
132	0x0d	0.054966677
133	0x04	0.016912824
134	0x09	0.03805385
135	0xed	-0.080335915
136	0x29	0.17335644
137	0x04	0.016912824
138	0xc9	-0.23255132
139	0x0a	0.04228206
140	0xc2	-0.26214877
141	0xf8	-0.033825647
142	0xeb	-0.088792324
143	0xe6	-0.109933354
144	0x0e	0.05919488
145	0x1d	0.12261797
146	0x03	0.012684617
147	0xd9	-0.16490003
148	0xe9	-0.09724873
149	0x08	0.033825647
150	0xe0	-0.13530259
151	0xc8	-0.23677953
152	0xe4	-0.11838976
153	0x37	0.23255132
154	0xe0	-0.13530259
155	0x07	0.02959744
156	0x37	0.23255132
157	0xf1	-0.06342309
158	0x29	0.17335644
159	0xd4	-0.18604106
160	0x16	0.09302053
161	0xdc	-0.1522154
162	0xe1	-0.13107438
163	0x1b	0.11416156
164	0x13	0.080335915
165	0x03	0.012684617
166	0xbb	-0.2917462
167	0xd9	-0.16490003
168	0x11	0.0718795
169	0x03	0.012684617
170	0xcc	-0.21986671
171	0xd4	-0.18604106
172	0x24	0.1522154
173	0x0d	0.054966677
174	0x2c	0.18604106
175	0xf7	-0.03805385
176	0x37	0.23255132
177	0xea	-0.09302053
178	0x1e	0.12684618
179	0xb2	-0.32980007
180	0xec	-0.08456412
181	0x18	0.10147694
182	0x0b	0.046510264
183	0x0b	0.046510264
184	0xde	-0.143759
185	0xb7	-0.30865902
186	0x05	0.02114103
187	0xca	-0.22832312
188	0x15	0.088792324
189	0xd2	-0.19449747
190	0x27	0.16490003
191	0x11	0.0718795
192	0x01	0.004228206
193	0x34	0.21986671
194	0x33	0.2156385
195	0xf7	-0.03805385
196	0xc4	-0.25369236
197	0xf9	-0.02959744
198	0xf0	-0.067651294
199	0xf5	-0.046510264
200	0x13	0.080335915
201	0x08	0.033825647
202	0x2d	0.19026926
203	0xee	-0.0761077
204	0xf3	-0.054966677
205	0xff	-0.004228206
206	0xc0	-0.27060518
207	0xe1	-0.13107438
208	0x32	0.2114103
209	0x07	0.02959744
210	0xd7	-0.17335644
211	0xfb	-0.02114103
212	0x25	0.15644361
213	0x06	0.025369234
214	0x1b	0.11416156
215	0x21	0.1395308
216	0x21	0.1395308
217	0x03	0.012684617
218	0xe9	-0.09724873
219	0xc2	-0.26214877
220	0x13	0.080335915
221	0x29	0.17335644
222	0x25	0.15644361
223	0xde	-0.143759
224	0xcf	-0.2071821
225	0xfe	-0.008456412
226	0x10	0.067651294
227	0x2d	0.19026926
228	0xee	-0.0761077
229	0x0f	0.06342309
230	0xcc	-0.21986671
231	0xf7	-0.03805385
232	0x3b	0.24946415
233	0xe1	-0.13107438
234	0xdc	-0.1522154
235	0x21	0.1395308
236	0x11	0.0718795
237	0x06	0.025369234
238	0x0a	0.04228206
239	0x05	0.02114103
240	0xbc	-0.287518
241	0xfd	-0.012684617
242	0xe2	-0.12684618
243	0x1d	0.12261797
244	0x33	0.2156385
245	0x09	0.03805385
246	0x13	0.080335915
247	0xf4	-0.05073847
248	0xff	-0.004228206
249	0xec	-0.08456412
250	0x1e	0.12684618
251	0xe9	-0.09724873
252	0x32	0.2114103
253	0x03	0.012684617
254	0x06	0.025369234
255	0xfa	-0.025369234
