pose_classifier.tflite (tflite, 26720 bytes, 6 tensors)

model/dense_2/MatMul f4 [2, 64]
0	0x3e339a16	0.17539248
1	0xbf6f9e58	-0.9360099
2	0xbf8794ad	-1.0592247
3	0x4029dd4e	2.6541324
4	0x3ff28520	1.8946877
5	0xbf117fa9	-0.5683542
6	0xbd94a717	-0.07258432
7	0x40019d42	2.0252233
8	0x3e889ff1	0.26684526
9	0xbdaa611d	-0.08319304
10	0x4004288d	2.064975
11	0x3ffbced4	1.9672494
12	0xbb7da0f4	-0.0038700672
13	0x4003f7d6	2.0620017
14	0xbd3e7625	-0.04649939
15	0x3ff41586	1.9069068
16	0x3e257328	0.1615721
17	0xbe150404	-0.14552313
18	0x400f579d	2.2397225
19	0x3ca6ba2b	0.020352444
20	0x3feed94b	1.8660063
21	0xbd1dede2	-0.03855694
22	0xbd05d457	-0.032673206
23	0x400a212c	2.1582747
24	0xbea03abb	-0.31294808
25	0x4016716b	2.3506725
26	0x3ffa6acb	1.9563841
27	0x3e77abba	0.24186602
28	0xbf1ffcb7	-0.6249499
29	0x401ba449	2.4319022
30	0xbd872a8c	-0.06599912
31	0xbe5e9e6f	-0.21740125
32	0x4002056b	2.0315807
33	0x401df72e	2.4682117
34	0xbe0fb8a7	-0.14035283
35	0xbe58f021	-0.21185352
36	0xbeef49f9	-0.46736124
37	0x3e622475	0.2208422
38	0xbf0c1913	-0.5472576
39	0xbe3aca5d	-0.18241258
40	0x3c151c9d	0.00910106
41	0xbe511e77	-0.20421778
42	0x3fc3ae16	1.5287502
43	0xbe2f6f8e	-0.17132398
44	0xbe7344a1	-0.23756649
45	0xbf51c15e	-0.8193568
46	0x401bd364	2.4347773
47	0xbe9ad76f	-0.30242488
48	0x3dac056a	0.0839947
49	0x40217c08	2.5231953
50	0x400e2084	2.2207346
51	0xbf13a91b	-0.5767991
52	0xbddde89a	-0.10835381
53	0x3c5be680	0.013421655
54	0x40139780	2.3061218
55	0xbf3707ea	-0.7149645
56	0xbdbd0729	-0.09229881
57	0x400db79d	2.2143319
58	0xbf8035e9	-1.0016452
59	0x40132fd5	2.2997944
60	0x3e556f71	0.20843293
61	0x40249224	2.5714197
62	0x3ffd972e	1.9811761
63	0xbe98d17b	-0.2984732
64	0x3dd77574	0.10520449
65	0x3f80a0b4	1.0049043
66	0x3f793097	0.9733977
67	0xc00cc504	-2.1995249
68	0xc0169489	-2.3528159
69	0x3f05deeb	0.5229327
70	0x3ed96630	0.42460775
71	0xc0062a0e	-2.0963168
72	0x3ce2c25b	0.027680567
73	0x3eba3289	0.3636668
74	0xc001230c	-2.017764
75	0xc003396f	-2.0503805
76	0x3e95c4cf	0.29251716
77	0xbff78429	-1.9337207
78	0xbeed0968	-0.4629624
79	0xc004de0c	-2.0760527
80	0x3e1bd867	0.1521927
81	0x3edc49e5	0.43025127
82	0xc00fa5f9	-2.2445052
83	0xbcb8848f	-0.022524146
84	0xbff97875	-1.9489886
85	0x3e4c3aee	0.19944355
86	0xbc94bbc9	-0.01815595
87	0xc00ff337	-2.2492197
88	0xbe366406	-0.17811593
89	0xc01dcba2	-2.4655538
90	0xc01580af	-2.3359792
91	0xbbc1cf33	-0.0059145926
92	0x3de8b305	0.1136227
93	0xc0059848	-2.0874195
94	0x3e2bfe8a	0.16796318
95	0x3e4c94bb	0.19978611
96	0xc01bf866	-2.437036
97	0xbff837cf	-1.9392031
98	0x3e0d9ad9	0.13828601
99	0xbe37c435	-0.17945941
100	0x3ee4b016	0.44665593
101	0x3dfe1370	0.12406051
102	0x3e2efd99	0.17088927
103	0x3eae5a6e	0.34053367
104	0xbdf65b7b	-0.12029167
105	0xbddda31f	-0.108221285
106	0xbfea1516	-1.8287685
107	0xbea762ef	-0.32692668
108	0xbd1917ad	-0.037376095
109	0x3f290263	0.66019267
110	0xc022190d	-2.532779
111	0x3e9a11b9	0.30091646
112	0xbe408889	-0.18802084
113	0xc0162a55	-2.3463337
114	0xc010b525	-2.2610562
115	0x3edfaf61	0.4368849
116	0x3e21ae7f	0.15789221
117	0xbdd66e7b	-0.10470291
118	0xc01a119c	-2.4073248
119	0x3f5b1968	0.8558564
120	0x3f0427b5	0.5162309
121	0xc017f447	-2.3742845
122	0x3f897b9d	1.0740849
123	0xc00d4d94	-2.20786
124	0xbe13c7d2	-0.14431694
125	0xc00f2fc8	-2.2372913
126	0xbff9a107	-1.9502267
127	0x3eadb56b	0.33927473

model/dense/BiasAdd/ReadVariableOp f4 [128]
0	0xbe09de40	-0.13463688
1	0xbe0df58f	-0.13863204
2	0xbdcc0639	-0.099621244
3	0xbd40b903	-0.04705144
4	0xbe347f58	-0.17626703
5	0xbdbe0492	-0.092782155
6	0xbd807b26	-0.06273489
7	0xbe5b0daa	-0.21391931
8	0xbddbcfd3	-0.10732999
9	0xbd53a4f5	-0.051670987
10	0xbdfbf1fb	-0.123020135
11	0xbc94be2a	-0.018157084
12	0xbd876a35	-0.06612054
13	0xbdbf3039	-0.093353696
14	0xbb740495	-0.0037234176
15	0xbe3cbfa8	-0.18432486
16	0xbb8f2aab	-0.0043691
17	0x3c2373a1	0.009976299
18	0xbea53dc2	-0.3227368
19	0xbe4b73c2	-0.19868377
20	0xbdba87a5	-0.091079034
21	0xbe0a9b24	-0.13535744
22	0x3c048528	0.008088388
23	0x3c5aea4f	0.013361528
24	0xbd96d28a	-0.07364376
25	0xbe3905e1	-0.18068649
26	0xbe6737c8	-0.22579873
27	0xbd6cf437	-0.05785009
28	0xbdd77ead	-0.10522208
29	0xbc80dd02	-0.015730385
30	0xbe442b99	-0.19157256
31	0xbe0d16d1	-0.13778235
32	0xbdfb110b	-0.1225911
33	0xbe27b6fa	-0.16378394
34	0xbe6fa9c4	-0.23404604
35	0xbe5ef611	-0.21773554
36	0xbe073585	-0.1320401
37	0xbcdc6045	-0.026901374
38	0xbdc785a8	-0.0974229
39	0xbd558f3f	-0.052138563
40	0xbd918d15	-0.071069874
41	0x39702b35	0.0002290428
42	0xbe26aca0	-0.16276789
43	0xbd58030b	-0.052737277
44	0xbdac6856	-0.08418338
45	0xbdee6b4a	-0.116415575
46	0xbb4acbfe	-0.0030944343
47	0xbdc16c46	-0.0944448
48	0xbdd75e23	-0.10516002
49	0xbe31bd62	-0.173574
50	0xbe18cd44	-0.14922053
51	0xbd7b977c	-0.061423764
52	0xbe864170	-0.262218
53	0xbe0ed8a8	-0.13949835
54	0xbdaf126e	-0.08548437
55	0xbccee2f1	-0.025254698
56	0x39907c13	0.00027558263
57	0xbdf889d0	-0.12135661
58	0xbbf0d594	-0.0073496792
59	0xbbd27591	-0.0064227064
60	0x3b75f763	0.0037531487
61	0xbe895b94	-0.2682768
62	0xbe65c315	-0.22437699
63	0xbb949fb5	-0.00453564
64	0xbd18795e	-0.03722512
65	0xbbb17ea6	-0.005416709
66	0xbda7685a	-0.081742
67	0xbd375dd7	-0.044767227
68	0x3c0a2a75	0.008432974
69	0xbdbba40d	-0.091621496
70	0x3c555baf	0.013022347
71	0xbda8bea1	-0.082394846
72	0xbdcfe787	-0.10151582
73	0xbdbcd2c5	-0.092198886
74	0xbd9ad9fe	-0.0756111
75	0xbe4d577c	-0.20052904
76	0xbd663123	-0.056199204
77	0xbe042252	-0.12903717
78	0xbe20b628	-0.15694487
79	0xbe278928	-0.16360915
80	0xbc76d1f1	-0.015064702
81	0x3bcd3ebd	0.0062635825
82	0xbe15c643	-0.14626412
83	0xbe2aac7c	-0.1666736
84	0x3c870e4b	0.016486308
85	0xbc8954fd	-0.016764158
86	0xbdad5fbd	-0.08465526
87	0xbc4b46f9	-0.012407058
88	0xbc992c73	-0.018697953
89	0xb9d27d0e	-0.00040147494
90	0xbcba4609	-0.022738473
91	0xbe17417e	-0.14771077
92	0xbd40484f	-0.04694396
93	0xbd46e5be	-0.048558943
94	0xbe640444	-0.22267252
95	0xbdcfd68b	-0.10148343
96	0xbe05b68f	-0.13057922
97	0xbe6a29fb	-0.22867577
98	0xbc373732	-0.011182593
99	0xbc7882ae	-0.015167875
100	0xbced0365	-0.028932283
101	0xbce760b5	-0.028244356
102	0x3c823b34	0.01589737
103	0xbdda291a	-0.10652371
104	0xbdec294f	-0.115313165
105	0xbb14dea0	-0.0022715703
106	0xbd71004d	-0.058838177
107	0xbe06fecf	-0.1318314
108	0xbdc678c0	-0.09691
109	0x3b7a0321	0.0038148838
110	0xbe3426ee	-0.17592975
111	0xbc39483f	-0.011308729
112	0xbddb8ea9	-0.1072057
113	0x3b0973ba	0.002097352
114	0xbb358f43	-0.00277038
115	0xbde5a6ec	-0.112134784
116	0xbbd5ff1f	-0.006530657
117	0xbe0ea956	-0.13931784
118	0xbd347dea	-0.044065394
119	0xbe74927c	-0.23884004
120	0x3bceff06	0.0063170223
121	0x3c06b421	0.008221657
122	0xbca8e767	-0.020618154
123	0xbd1034c7	-0.035206582
124	0xbbaa202b	-0.005191823
125	0xbe030549	-0.12794985
126	0xbe345f53	-0.17614488
127	0x3c4156e4	0.0118005015

model/dense_2/BiasAdd/ReadVariableOp f4 [2]
0	0xbf0298e0	-0.5101452
1	0x3f0298da	0.5101448

model/dense_1/BiasAdd/ReadVariableOp f4 [64]
0	0xbd6baad9	-0.05753598
1	0x3d49ef7f	0.049300667
2	0x3db4f432	0.08835639
3	0x3cc6cc49	0.024267333
4	0x3ce909bf	0.02844703
5	0x3dccde9e	0.10003398
6	0x3db3bd3b	0.08776327
7	0x3a954363	0.0011387881
8	0xbd266a62	-0.0406288
9	0x3dcee32c	0.10101923
10	0xbb51f492	-0.0032036644
11	0x3d177985	0.036981124
12	0x3dc2ff23	0.0952132
13	0xba43b9c8	-0.0007466343
14	0x3c2ce4cc	0.010552596
15	0x3cc67a8e	0.02422836
16	0xbd513e5e	-0.05108487
17	0x3ddc6ca2	0.107629076
18	0x3c4bcd94	0.01243915
19	0xbdeca16d	-0.11554227
20	0xb984a7cd	-0.00025302023
21	0x3db9cb06	0.09071927
22	0x3e18ead6	0.14933333
23	0x38a0e808	7.672614e-05
24	0x3dd64379	0.10462088
25	0x3b034f08	0.002003612
26	0xbd033729	-0.032035027
27	0xbdaaec51	-0.08345855
28	0x3e1ec862	0.15506127
29	0x3bc21107	0.00592244
30	0x3e0ee3ff	0.13954161
31	0x3db14c4d	0.08657131
32	0xbc69e027	-0.0142746335
33	0x3d0ab58b	0.03386454
34	0x3de5bd0f	0.11217701
35	0xbd66cf04	-0.05634977
36	0x3e0b2dca	0.13591686
37	0xbddf8c17	-0.10915392
38	0x3e1b2300	0.1515007
39	0x3e299084	0.16559035
40	0xbd9888c5	-0.07447962
41	0x3e347ec8	0.17626488
42	0x3d006f18	0.031355947
43	0xbd224228	-0.039613873
44	0x3e0ae5fc	0.13564295
45	0x3e0322ec	0.1280629
46	0xbd72b349	-0.05925301
47	0x3e087a68	0.13327944
48	0xbdb44bdf	-0.08803534
49	0xbd01ea7a	-0.031717755
50	0x3c3e2936	0.011606505
51	0x3da1d234	0.07901421
52	0x3dd2513f	0.10269403
53	0xbdf330bc	-0.1187453
54	0x3cd9f100	0.026604176
55	0x3dcce54a	0.10004671
56	0x3e0e04ce	0.1386902
57	0x3d30f836	0.043205462
58	0x3da4750f	0.0803014
59	0x3c951336	0.018197637
60	0xbc22fefc	-0.009948488
61	0xb8eb90a4	-0.000112326146
62	0xbc7e9e84	-0.015540723
63	0x3e06505d	0.13116594

model/dense/MatMul i1 [128, 34] scale=0.022477401 zero_point=0
0	0xff	-0.022477401
1	0x03	0.0674322
2	0x02	0.044954803
3	0xfe	-0.044954803
4	0x01	0.022477401
5	0x04	0.089909606
6	0x01	0.022477401
7	0xfe	-0.044954803
8	0x01	0.022477401
9	0x06	0.1348644
10	0xfc	-0.089909606
11	0x08	0.17981921
12	0x04	0.089909606
13	0x04	0.089909606
14	0xfa	-0.1348644
15	0xfd	-0.0674322
16	0x01	0.022477401
17	0xf9	-0.15734181
18	0x06	0.1348644
19	0xfd	-0.0674322
20	0xfd	-0.0674322
21	0xf9	-0.15734181
22	0x05	0.11238701
23	0xf4	-0.2697288
24	0x00	0.0
25	0x01	0.022477401
26	0x03	0.0674322
27	0xfc	-0.089909606
28	0xff	-0.022477401
29	0xfd	-0.0674322
30	0x02	0.044954803
31	0xfa	-0.1348644
32	0xfb	-0.11238701
33	0x01	0.022477401
34	0xfa	-0.1348644
35	0xef	-0.3821158
36	0x01	0.022477401
37	0xeb	-0.47202542
38	0xfd	-0.0674322
39	0x12	0.40459323
40	0xf4	-0.2697288
41	0x03	0.0674322
42	0x02	0.044954803
43	0x0e	0.31468362
44	0xf7	-0.20229661
45	0xfd	-0.0674322
46	0x08	0.17981921
47	0x01	0.022477401
48	0xf7	-0.20229661
49	0xe1	-0.69679946
50	0x10	0.35963842
51	0x00	0.0
52	0x03	0.0674322
53	0xe3	-0.6518446
54	0xfa	-0.1348644
55	0xf8	-0.17981921
56	0xc1	-1.4160763
57	0xfa	-0.1348644
58	0x39	1.2812119
59	0x00	0.0
60	0x02	0.044954803
61	0x06	0.1348644
62	0x0d	0.29220623
63	0x12	0.40459323
64	0xf6	-0.22477402
65	0x09	0.20229661
66	0xf7	-0.20229661
67	0xfe	-0.044954803
68	0x03	0.0674322
69	0xf9	-0.15734181
70	0xfb	-0.11238701
71	0xfc	-0.089909606
72	0xfd	-0.0674322
73	0x1a	0.58441246
74	0xf2	-0.31468362
75	0xf7	-0.20229661
76	0x04	0.089909606
77	0x10	0.35963842
78	0xf5	-0.24725142
79	0xe3	-0.6518446
80	0x10	0.35963842
81	0x06	0.1348644
82	0xfb	-0.11238701
83	0xde	-0.7642316
84	0x11	0.3821158
85	0x05	0.11238701
86	0x05	0.11238701
87	0xe7	-0.561935
88	0x08	0.17981921
89	0xfb	-0.11238701
90	0xd0	-1.0789152
91	0xf0	-0.35963842
92	0x2d	1.0114831
93	0x10	0.35963842
94	0xfa	-0.1348644
95	0xff	-0.022477401
96	0xfe	-0.044954803
97	0x0b	0.24725142
98	0xfb	-0.11238701
99	0x06	0.1348644
100	0xf8	-0.17981921
101	0x0c	0.2697288
102	0x04	0.089909606
103	0x00	0.0
104	0xfb	-0.11238701
105	0xf6	-0.22477402
106	0x02	0.044954803
107	0x20	0.71927685
108	0xfc	-0.089909606
109	0x02	0.044954803
110	0x00	0.0
111	0x0d	0.29220623
112	0xe8	-0.5394576
113	0x00	0.0
114	0x09	0.20229661
115	0xe3	-0.6518446
116	0xee	-0.40459323
117	0x09	0.20229661
118	0x14	0.44954804
119	0x04	0.089909606
120	0xf3	-0.29220623
121	0xf5	-0.24725142
122	0x02	0.044954803
123	0xf0	-0.35963842
124	0xb7	-1.6408503
125	0x1b	0.60688984
126	0x4b	1.6858051
127	0xee	-0.40459323
128	0xfb	-0.11238701
129	0x0d	0.29220623
130	0x00	0.0
131	0x0e	0.31468362
132	0x01	0.022477401
133	0x09	0.20229661
134	0xff	-0.022477401
135	0x06	0.1348644
136	0xf4	-0.2697288
137	0x03	0.0674322
138	0x03	0.0674322
139	0x05	0.11238701
140	0xff	-0.022477401
141	0x04	0.089909606
142	0xf8	-0.17981921
143	0x05	0.11238701
144	0x03	0.0674322
145	0x05	0.11238701
146	0xf7	-0.20229661
147	0xfb	-0.11238701
148	0x00	0.0
149	0xff	-0.022477401
150	0xfd	-0.0674322
151	0xf6	-0.22477402
152	0xfd	-0.0674322
153	0xfe	-0.044954803
154	0x0e	0.31468362
155	0xef	-0.3821158
156	0xfa	-0.1348644
157	0xfd	-0.0674322
158	0xee	-0.40459323
159	0xf5	-0.24725142
160	0x15	0.47202542
161	0x0a	0.22477402
162	0xf7	-0.20229661
163	0xff	-0.022477401
164	0xfa	-0.1348644
165	0x00	0.0
166	0xf8	-0.17981921
167	0xfb	-0.11238701
168	0xf8	-0.17981921
169	0xfb	-0.11238701
170	0xfe	-0.044954803
171	0x04	0.089909606
172	0x03	0.0674322
173	0x0a	0.22477402
174	0xfb	-0.11238701
175	0x0a	0.22477402
176	0x01	0.022477401
177	0x06	0.1348644
178	0x00	0.0
179	0xfb	-0.11238701
180	0xfd	-0.0674322
181	0xfb	-0.11238701
182	0xfb	-0.11238701
183	0xfb	-0.11238701
184	0x05	0.11238701
185	0xfe	-0.044954803
186	0x03	0.0674322
187	0xfb	-0.11238701
188	0x03	0.0674322
189	0xfa	-0.1348644
190	0xfe	-0.044954803
191	0xfb	-0.11238701
192	0xfa	-0.1348644
193	0xf7	-0.20229661
194	0xfe	-0.044954803
195	0x03	0.0674322
196	0xfe	-0.044954803
197	0xf7	-0.20229661
198	0xf9	-0.15734181
199	0x01	0.022477401
200	0xfe	-0.044954803
201	0xff	-0.022477401
202	0x03	0.0674322
203	0xf4	-0.2697288
204	0x02	0.044954803
205	0x21	0.74175423
206	0xfb	-0.11238701
207	0x20	0.71927685
208	0xfd	-0.0674322
209	0x1e	0.67432207
210	0xfc	-0.089909606
211	0x16	0.49450284
212	0xfd	-0.0674322
213	0x0d	0.29220623
214	0x01	0.022477401
215	0x26	0.85414124
216	0x02	0.044954803
217	0x12	0.40459323
218	0x0a	0.22477402
219	0xfc	-0.089909606
220	0x01	0.022477401
221	0xf8	-0.17981921
222	0x03	0.0674322
223	0x0c	0.2697288
224	0x10	0.35963842
225	0x10	0.35963842
226	0xf3	-0.29220623
227	0x14	0.44954804
228	0x0a	0.22477402
229	0xe2	-0.67432207
230	0x06	0.1348644
231	0x14	0.44954804
232	0x13	0.42707062
233	0xf9	-0.15734181
234	0xfc	-0.089909606
235	0x1c	0.62936723
236	0x0e	0.31468362
237	0x1f	0.69679946
238	0x02	0.044954803
239	0xff	-0.022477401
240	0xfa	-0.1348644
241	0xfe	-0.044954803
242	0xfe	-0.044954803
243	0x03	0.0674322
244	0x00	0.0
245	0x04	0.089909606
246	0x07	0.15734181
247	0x03	0.0674322
248	0xfe	-0.044954803
249	0x0d	0.29220623
250	0x0a	0.22477402
251	0x0d	0.29220623
252	0xf9	-0.15734181
253	0xf8	-0.17981921
254	0x00	0.0
255	0xff	-0.022477401

model/dense_1/MatMul i1 [64, 128] scale=0.021922 zero_point=0
0	0xff	-0.021922
1	0x20	0.701504
2	0x06	0.131532
3	0x1d	0.635738
4	0x01	0.021922
5	0x0a	0.21922
6	0xea	-0.482284
7	0xff	-0.021922
8	0x23	0.76726997
9	0x0e	0.306908
10	0x23	0.76726997
11	0x2b	0.94264597
12	0x39	1.249554
13	0x02	0.043844
14	0xe6	-0.569972
15	0x10	0.350752
16	0xd8	-0.87688
17	0xe7	-0.54805
18	0x0d	0.284986
19	0x21	0.723426
20	0x01	0.021922
21	0x2d	0.98649
22	0x0a	0.21922
23	0xfe	-0.043844
24	0x1a	0.569972
25	0x17	0.504206
26	0x1a	0.569972
27	0x0e	0.306908
28	0x3c	1.31532
29	0xc1	-1.381086
30	0x0c	0.263064
31	0x23	0.76726997
32	0x20	0.701504
33	0x3b	1.293398
34	0xfa	-0.131532
35	0x37	1.2057099
36	0xfd	-0.065766
37	0x0e	0.306908
38	0x12	0.39459598
39	0x16	0.482284
40	0x0f	0.32883
41	0x19	0.54805
42	0x0d	0.284986
43	0xf2	-0.306908
44	0x36	1.183788
45	0x0d	0.284986
46	0x0c	0.263064
47	0x01	0.021922
48	0x07	0.153454
49	0x0d	0.284986
50	0x33	1.118022
51	0x0c	0.263064
52	0xfd	-0.065766
53	0x16	0.482284
54	0x16	0.482284
55	0xf9	-0.153454
56	0xea	-0.482284
57	0x03	0.065766
58	0x09	0.19729799
59	0xd8	-0.87688
60	0xf6	-0.21922
61	0x04	0.087688
62	0xfa	-0.131532
63	0xc3	-1.337242
64	0x08	0.175376
65	0xda	-0.833036
66	0x19	0.54805
67	0x12	0.39459598
68	0xed	-0.416518
69	0x0c	0.263064
70	0xa8	-1.929136
71	0xf9	-0.153454
72	0x1e	0.65766
73	0x15	0.460362
74	0x30	1.052256
75	0x15	0.460362
76	0x00	0.0
77	0x11	0.372674
78	0x26	0.833036
79	0xef	-0.372674
80	0xac	-1.841448
81	0xe0	-0.701504
82	0x05	0.10961
83	0x46	1.5345399
84	0xe3	-0.635738
85	0xf6	-0.21922
86	0x17	0.504206
87	0x0c	0.263064
88	0x3f	1.381086
89	0xe8	-0.526128
90	0x05	0.10961
91	0x2d	0.98649
92	0x27	0.854958
93	0x28	0.87688
94	0x01	0.021922
95	0x23	0.76726997
96	0xf9	-0.153454
97	0x0f	0.32883
98	0xe6	-0.569972
99	0x04	0.087688
100	0x0c	0.263064
101	0x08	0.175376
102	0xf3	-0.284986
103	0x19	0.54805
104	0x0b	0.241142
105	0x99	-2.257966
106	0x0d	0.284986
107	0x0c	0.263064
108	0x10	0.350752
109	0xef	-0.372674
110	0x05	0.10961
111	0x0e	0.306908
112	0x27	0.854958
113	0xe1	-0.679582
114	0xe9	-0.504206
115	0x3d	1.337242
116	0xf7	-0.19729799
117	0x0f	0.32883
118	0xc0	-1.403008
119	0xfc	-0.087688
120	0xee	-0.39459598
121	0xeb	-0.460362
122	0xc4	-1.31532
123	0x1c	0.613816
124	0xdb	-0.811114
125	0x15	0.460362
126	0x05	0.10961
127	0x04	0.087688
128	0x03	0.065766
129	0x3a	1.271476
130	0x1b	0.591894
131	0x11	0.372674
132	0x14	0.43844
133	0x01	0.021922
134	0xfc	-0.087688
135	0xf1	-0.32883
136	0x31	1.074178
137	0x03	0.065766
138	0x20	0.701504
139	0x2d	0.98649
140	0x28	0.87688
141	0x27	0.854958
142	0xbd	-1.468774
143	0x37	1.2057099
144	0xd1	-1.030334
145	0xc9	-1.2057099
146	0x00	0.0
147	0x2f	1.030334
148	0x08	0.175376
149	0x21	0.723426
150	0x0b	0.241142
151	0xd9	-0.854958
152	0x10	0.350752
153	0x1c	0.613816
154	0x0e	0.306908
155	0x06	0.131532
156	0x21	0.723426
157	0xba	-1.5345399
158	0x30	1.052256
159	0x2c	0.964568
160	0x35	1.161866
161	0x37	1.2057099
162	0xfe	-0.043844
163	0x20	0.701504
164	0xfd	-0.065766
165	0x18	0.526128
166	0x1e	0.65766
167	0x08	0.175376
168	0x10	0.350752
169	0x02	0.043844
170	0x24	0.78919196
171	0xf6	-0.21922
172	0x48	1.5783839
173	0x07	0.153454
174	0x07	0.153454
175	0x05	0.10961
176	0x08	0.175376
177	0x08	0.175376
178	0x16	0.482284
179	0x2a	0.920724
180	0xfc	-0.087688
181	0x19	0.54805
182	0x0c	0.263064
183	0x0a	0.21922
184	0xf6	-0.21922
185	0xfb	-0.10961
186	0xff	-0.021922
187	0xdb	-0.811114
188	0xdc	-0.78919196
189	0x14	0.43844
190	0xff	-0.021922
191	0xd2	-1.008412
192	0x0b	0.241142
193	0xc2	-1.359164
194	0x40	1.403008
195	0x17	0.504206
196	0xef	-0.372674
197	0x11	0.372674
198	0xb9	-1.5564619
199	0x02	0.043844
200	0x19	0.54805
201	0x0e	0.306908
202	0x18	0.526128
203	0x04	0.087688
204	0x3a	1.271476
205	0x17	0.504206
206	0x25	0.811114
207	0xfe	-0.043844
208	0xa3	-2.0387459
209	0xd8	-0.87688
210	0x31	1.074178
211	0x16	0.482284
212	0xd7	-0.898802
213	0xe8	-0.526128
214	0x06	0.131532
215	0xff	-0.021922
216	0x58	1.929136
217	0xc0	-1.403008
218	0xdd	-0.76726997
219	0x10	0.350752
220	0x1c	0.613816
221	0x4e	1.709916
222	0x0c	0.263064
223	0x38	1.227632
224	0x07	0.153454
225	0x15	0.460362
226	0xc5	-1.293398
227	0x08	0.175376
228	0x15	0.460362
229	0x25	0.811114
230	0xc1	-1.381086
231	0x1f	0.679582
232	0x09	0.19729799
233	0xab	-1.86337
234	0x28	0.87688
235	0x1a	0.569972
236	0xfd	-0.065766
237	0xe8	-0.526128
238	0x30	1.052256
239	0x3f	1.381086
240	0x3a	1.271476
241	0xe5	-0.591894
242	0xde	-0.745348
243	0x20	0.701504
244	0xe6	-0.569972
245	0x1f	0.679582
246	0xb2	-1.709916
247	0x0b	0.241142
248	0xe6	-0.569972
249	0xec	-0.43844
250	0xc5	-1.293398
251	0x2a	0.920724
252	0xee	-0.39459598
253	0x10	0.350752
254	0x19	0.54805
255	0xd2	-1.008412
